model_weights.pth (torch, 2713 bytes, 3 tensors)

layer_1.weight f4 [5, 9]
0	0x3ec5bddd	0.38621417
1	0x3e7a22c7	0.24427329
2	0xbe52af6e	-0.20574734
3	0x3f2f9497	0.68586105
4	0xbeba6b04	-0.3640977
5	0x3bfc03b2	0.00769087
6	0xbec05b46	-0.37569636
7	0xbeb3b091	-0.35095647
8	0x3e3e380a	0.18576065
9	0x40360546	2.8440719
10	0x40436481	3.0530093
11	0x404189d6	3.0240378
12	0x403bb378	2.932829
13	0x404179f5	3.0230687
14	0x4027e18d	2.6231415
15	0xbfd40bf2	-1.6566145
16	0xbfc16e39	-1.5111762
17	0x3dfbd634	0.122967154
18	0x3f03a120	0.5141773
19	0x3e92c0c5	0.28662696
20	0xbd914247	-0.070927195
21	0x3eee0e9b	0.46495518
22	0xbef00b97	-0.46883842
23	0x3f4af335	0.79277354
24	0xbf47cd44	-0.78047585
25	0xbe172930	-0.14761806
26	0x3d575bd3	0.052577805
27	0xc0333f2a	-2.8007302
28	0xc0380a62	-2.8756337
29	0xc032c855	-2.7934773
30	0xc020084d	-2.5005066
31	0xc023a1d5	-2.5567524
32	0xc0334e89	-2.8016684
33	0x3fdb707b	1.7143701
34	0x3fe9500b	1.8227552
35	0x3d9bb1d9	0.07602281
36	0xc01340a5	-2.3008206
37	0xbff3141d	-1.8990513
38	0xc00f5b16	-2.2399344
39	0xc00433c2	-2.065659
40	0xc00416b0	-2.0638847
41	0xc001a69b	-2.0257938
42	0x3fa3a29a	1.2783997
43	0x3fb8ce28	1.4437914
44	0x3d930d80	0.07180309

layer_1.bias f4 [5]
0	0x3cd214cc	0.025644682
1	0x4025e190	2.5918922
2	0x3f10bbf4	0.56536794
3	0xc03a79ec	-2.9136915
4	0xc01d2955	-2.4556477

layer_2.weight f4 [1, 5]
0	0xbe9f061d	-0.31059352
1	0xc043135e	-3.048057
2	0xbefd01d5	-0.4941546
3	0x405a6b03	3.4127815
4	0x400224b1	2.0334895
