model_weights.pth (torch, 2649 bytes, 3 tensors)

layer_1.weight f4 [5, 9]
3.958852 3.941569 3.9072251 4.272863 4.188357 4.2426724 -2.4623966 -2.284669
0.045548026 1.3455857 1.2720542 1.2052369 1.4549247 1.2384368 1.2213051 -1.1569786
-0.66978675 0.08332645 2.2009966 2.2597573 2.2592015 2.1679652 2.1930006 2.349092
-1.0181506 -1.2033987 0.026068764 1.8200978 1.951705 1.7544388 1.7441418 2.1566842
1.7029539 -1.1848851 -1.1634787 0.07863335 -1.006396 -0.6016712 -1.305616 -1.2197183
-0.6618584 -1.0845094 0.9888763 1.5758849 0.48129928
00000000: d55d 7d40 ab42 7c40 fa0f 7a40 4bbb 8840
00000010: 0507 8640 f9c3 8740 e897 1dc0 0438 12c0
00000020: 9190 3a3d 273c ac3f acd2 a23f 3445 9a3f
00000030: f93a ba3f 1985 9e3f ba53 9c3f e017 94bf
00000040: 2577 2bbf 0fa7 aa3d 21dd 0c40 dd9f 1040
00000050: c296 1040 f1bf 0a40 1f5a 0c40 8657 1640
00000060: c252 82bf f808 9abf 298e d53c f7f8 e83f
00000070: 78d1 f93f 7391 e03f 0a40 df3f 1d07 0a40
00000080: 65fa d93f 51aa 97bf dfec 94bf 860a a13d
00000090: 96d1 80bf 2007 1abf 6d1e a7bf bb1f 9cbf
000000a0: 8d6f 29bf 34d1 8abf ff26 7d3f 99b6 c93f
000000b0: dc6c f63e

layer_1.bias f4 [5]
3.8509605 1.1440511 1.948717 2.3545663 -0.7203898
00000000: 2376 7640 4470 923f 8f6f f93f 37b1 1640
00000010: 776b 38bf

layer_2.weight f4 [1, 5]
-4.982211 -0.9795624 -3.6911407 -2.44677 1.1866729
00000000: 466e 9fc0 9ac4 7abf a63b 6cc0 e197 1cc0
00000010: e6e4 973f
