model_weights.pth (torch, 2713 bytes, 3 tensors)

layer_1.weight f4 [5, 9]
0	0xc05caa7e	-3.447906
1	0xc05661fe	-3.349731
2	0xc05e3ac1	-3.472336
3	0xc04caa51	-3.1978953
4	0xc0545ba7	-3.318094
5	0xc0491869	-3.1421149
6	0x3feca872	1.8488905
7	0x400b0722	2.1723104
8	0x3de15439	0.11002392
9	0x4031f594	2.780614
10	0x40425082	3.0361638
11	0x4030a62f	2.760143
12	0x401f8b65	2.492883
13	0x40229f39	2.5409682
14	0x402be515	2.685857
15	0xbfcad29c	-1.5845523
16	0xbfa0fd7a	-1.2577355
17	0x3e9c9b91	0.30587438
18	0xbdd13221	-0.102146395
19	0xbd75bf7c	-0.059997067
20	0x3e00087a	0.12503234
21	0x3e483c9f	0.19554375
22	0xbe726df0	-0.2367475
23	0x3e1822ed	0.14857073
24	0x3e2d438c	0.16920298
25	0x3d5cbcb3	0.053890895
26	0xbe4eb411	-0.20185877
27	0xbfe4905e	-1.7856557
28	0xbfd3fadf	-1.6560935
29	0xbfe313ee	-1.7740457
30	0xbfe6a1d1	-1.8018132
31	0xbfc2e506	-1.5226142
32	0xbfdb7cc8	-1.7147455
33	0x3fa1680e	1.260988
34	0x3f892294	1.0713677
35	0x3dd55cf8	0.10418123
36	0xbe9c3fe0	-0.30517483
37	0x3eb67d16	0.35642308
38	0x3eb0deef	0.34545085
39	0x3d61e2c5	0.055147905
40	0xbd9e5f4e	-0.07733022
41	0x3e378b67	0.17924272
42	0x3e279fdd	0.16369577
43	0x3d6e72ad	0.058214832
44	0xbe862ff9	-0.26208475

layer_1.bias f4 [5]
0	0xc0432d4a	-3.0496392
1	0x4023bca6	2.5583892
2	0xbec28c12	-0.3799749
3	0xbfd1dfcf	-1.6396426
4	0x3eb95e07	0.3620455

layer_2.weight f4 [1, 5]
0	0x408104a3	4.031816
1	0xc01f959b	-2.4935062
2	0xbe2315a7	-0.15926228
3	0x402ce589	2.7015097
4	0xbeee4437	-0.4653642
