model_weights.pth (torch, 2649 bytes, 3 tensors)

layer_1.weight f4 [5, 9]
00000000: 3bee 2fc0 de21 2ac0 399f 36c0 2fc8 3ec0
00000010: 02ce 33c0 cf5e 48c0 1477 ce3f 9c6a ff3f
00000020: fc24 e23d 5eca a03c 1db4 80be 2239 adbe
00000030: c0ba 31bd 2849 00be 6e9d c8be 8668 123d
00000040: c0d9 aabe 331b 02be 236d 2e40 e6b2 3240
00000050: bc68 2340 a486 1c40 14ad 2440 b1be 1440
00000060: 640a d0bf 4ec9 7bbf 193b 7e3e ef4c 3740
00000070: 9e58 a73f 936a 0d40 3657 0040 b56c 0740
00000080: fb8c 8a3f 4efd aabf 745a 9fbf 9532 9a3e
00000090: 6358 fcbf fa5d 19c0 db9d 08c0 800f fcbf
000000a0: 98ab 00c0 5836 07c0 e75b b13f 8660 ae3f
000000b0: 1e6c ba3d
-2.7489154 -2.658317 -2.8534682 -2.9809682 -2.8094487 -3.1307867 1.613009 1.995441
0.110422105 0.019627746 -0.25137416 -0.3383265 -0.04339099 -0.12527907 -0.3918261 0.035744213
-0.33369255 -0.12705688 2.7254112 2.792169 2.5532675 2.4457178 2.5730639 2.3241389
-1.6253171 -0.9835404 0.24827231 2.8640707 1.3073919 2.2096298 2.005323 2.11601
1.0824274 -1.3358552 -1.2449479 0.30116716 -1.9714473 -2.3963609 -2.1346347 -1.969223
-2.0104733 -2.1126919 1.3856171 1.3623207 0.09102653

layer_1.bias f4 [5]
00000000: b000 32c0 1201 debd eb73 3840 7985 0440
00000010: a79d 07c0
-2.781292 -0.10840048 2.882075 2.0706465 -2.1189973

layer_2.weight f4 [1, 5]
00000000: 9a5b 6940 7e67 80bd 6308 f7bf a410 65bf
00000010: adde 5a40
3.646216 -0.062697396 -1.9299434 -0.89478517 3.419841
