model_weights.pth (torch, 2713 bytes, 3 tensors)

layer_1.weight f4 [5, 9]
-1.2720184 -1.4748828 -1.0259745 -1.0317984 -1.5560486 -1.2704346 0.66257864 1.2023141
0.3127649 1.9692055 2.6191244 2.651192 2.044985 2.2245927 2.0576732 -1.4505302
-1.3564416 0.06911726 -1.2058005 -1.1734992 -0.8473326 -1.4245511 -0.8291634 -1.0510093
0.5116173 1.070541 0.15879405 3.9723427 3.7244756 3.8392923 3.9722722 3.8184102
4.0328536 -2.484076 -2.231584 0.039881594 1.4712124 0.667351 1.2618238 1.0186374
1.5060238 1.0726842 -0.93351567 -0.74328077 0.30584604
00000000: 80d1 a2bf f6c8 bcbf 2253 83bf f811 84bf
00000010: 9a2c c7bf 9a9d a2bf c19e 293f 6ee5 993f
00000020: b922 a03e ed0e fc3f bc9f 2740 21ad 2940
00000030: 09e1 0240 ba5f 0e40 ebb0 0340 f9aa b9bf
00000040: e19f adbf 5a8d 8d3d ac57 9abf 3935 96bf
00000050: caea 58bf b157 b6bf 0d44 54bf 7987 86bf
00000060: 5af9 023f 7d07 893f e89a 223e dd3a 7e40
00000070: cf5d 6e40 f7b6 7540 b539 7e40 d560 7440
00000080: 230d 8140 1afb 1ec0 46d2 0ec0 e25a 233d
00000090: b050 bc3f 84d7 2a3f 7183 a13f b662 823f
000000a0: 63c5 c03f b74d 893f e2fa 6ebf a647 3ebf
000000b0: da97 9c3e

layer_1.bias f4 [5]
-1.5542823 2.7919388 -1.2420843 4.1818194 1.1106384
00000000: b9f2 c6bf 20af 3240 9efc 9ebf 77d1 8540
00000010: 6629 8e3f

layer_2.weight f4 [1, 5]
1.3279028 -2.8819199 1.8942506 -5.2557755 -1.1321529
00000000: b8f8 a93f 6071 38c0 ce76 f23f 502f a8c0
00000010: 63ea 90bf
